Lab1/netflix_sales_best_model.pth (torch, 9068 bytes, 7 tensors)

weight f4 [1, 4]
0.11892995 -0.21610966 -0.2718308 0.022950472
00000000: 8c91 f33d da4b 5dbe 682d 8bbe a102 bc3c

weight f4 [1, 4]
0.018216593 -0.18922023 0.30820453 -0.19156052
00000000: f73a 953c f3c2 41be fccc 9d3e 7128 44be

weight f4 [1, 4]
0.2371301 0.6256548 -0.27087098 0.18612297
00000000: 3cd2 723e ea2a 203f 9aaf 8abe 0597 3e3e

weight f4 [1, 4]
-0.058578316 0.38721585 -0.34848285 0.14815192
00000000: d1ef 6fbd 2841 c63e 586c b2be 23b5 173e

weight f4 [1, 4]
-0.1545457 0.2546793 -0.17891748 -0.16929401
00000000: 3a41 1ebe 5365 823e 2536 37be 695b 2dbe

weight f4 [1, 4]
-0.18264669 0.050669923 -0.34500596 -0.24792384
00000000: bc07 3bbe 448b 4f3d 9fa4 b0be bfdf 7dbe

weight f4 [1, 4]
0.4023256 -0.018374192 -0.04849579 0.013514065
00000000: 9ffd cd3e 7985 96bc 86a3 46bd 196a 5d3c
